app/model_with_softmax.tflite (tflite, 643304 bytes, 3 tensors)

arith.constant f4 [11, 16]
0	0xbfcb6c43	-1.5892414
1	0xbf1dcbef	-0.616393
2	0x3f977c55	1.1834818
3	0x3fb375ce	1.4020326
4	0xbfb832ff	-1.4390563
5	0x3faaf25d	1.3355213
6	0x3fda605e	1.7060659
7	0x3fc056f8	1.5026541
8	0xbfb9a50a	-1.4503491
9	0x3fd0ed2b	1.6322378
10	0xbf986605	-1.1906134
11	0xbfc8fa71	-1.5701429
12	0xbfc310e8	-1.5239534
13	0x3fcb9dea	1.5907567
14	0xbfcaabfc	-1.5833735
15	0x3fc97b2b	1.5740713
16	0x3f792e07	0.9733586
17	0x3fc277ee	1.519285
18	0x3f94f858	1.1638288
19	0x3fb307f6	1.3986804
20	0xbfa6c78e	-1.3029649
21	0x3f9bed7d	1.2181851
22	0xbfd5fcc9	-1.6717769
23	0x3fcd5d23	1.6044048
24	0xbfc4966c	-1.5358405
25	0xbfc23c0e	-1.5174577
26	0xbfbb3368	-1.4625063
27	0x3fb544ce	1.4161623
28	0x3fcc35b2	1.5953887
29	0x3fbd3f0f	1.4784869
30	0x3fbe7527	1.4879502
31	0xbf9ed051	-1.2407323
32	0x3fc35344	1.5259786
33	0x400826f2	2.127377
34	0xbfb58dae	-1.4183862
35	0xbf38ce8f	-0.72190183
36	0x3fa2b14e	1.2710359
37	0xbf5ebc1a	-0.8700577
38	0xbf20d807	-0.6282963
39	0x3fef38da	1.8689225
40	0x3fc88564	1.5665708
41	0x3fd1317f	1.634323
42	0x3f94b0ff	1.1616515
43	0xbfeddb7b	-1.8582605
44	0xbf99eb28	-1.2024889
45	0xbfb28624	-1.3947186
46	0x3f7e1736	0.9925417
47	0x3f479648	0.77963686
48	0x3f8d7b59	1.1053268
49	0xbfbce7f5	-1.4758288
50	0xbfc4eb51	-1.5384313
51	0xbf91112a	-1.1333363
52	0xbfb55ac2	-1.4168322
53	0xbfb85b99	-1.4402953
54	0x3fc2dde6	1.5223968
55	0x3ff5b4e8	1.9195833
56	0x3fa99924	1.324986
57	0xbff0daf1	-1.8816816
58	0x3fb0c034	1.3808656
59	0x3f9b52fb	1.2134699
60	0x3fe771c7	1.8081597
61	0xbfaa4740	-1.3302994
62	0xbfd3f37a	-1.6558678
63	0xbfc0f6ff	-1.5075377
64	0x3f954ca2	1.1664011
65	0x3f9eaa56	1.2395732
66	0x3f8b4013	1.0878929
67	0x3fc5bb65	1.5447813
68	0xbfa3b6a1	-1.2790109
69	0x3f92a367	1.1456116
70	0x3fb4d107	1.412629
71	0xbfb62e4b	-1.4232877
72	0x3fabde4d	1.3427216
73	0x3fa4fba5	1.2889296
74	0x3fbce16f	1.4756297
75	0x3fba99ba	1.4578164
76	0x3fb77f12	1.4335654
77	0x3fb35815	1.4011256
78	0xbfd4aa21	-1.6614419
79	0xbfc65981	-1.5496064
80	0x3fb242d6	1.3926647
81	0xbfdbc0dc	-1.7168231
82	0x3fe51a04	1.7898564
83	0xbf673248	-0.903111
84	0x3fc5712c	1.5425162
85	0xbfa1241c	-1.2589145
86	0x3fbbeee8	1.4682283
87	0xbfd1c927	-1.6389512
88	0xbfebfeb9	-1.843711
89	0xbfdafd78	-1.7108603
90	0xbfcadf63	-1.5849422
91	0xbfbbe7c9	-1.468011
92	0xbfb44501	-1.4083558
93	0xbf87b856	-1.060313
94	0x3fc2f92e	1.5232294
95	0xbf7fc62a	-0.9991175
96	0xbfbf5731	-1.4948484
97	0xbfb04ad6	-1.3772838
98	0x3f8af2ab	1.0855306
99	0x3fbd3b48	1.4783716
100	0xbfb4d15a	-1.4126389
101	0x3f98d603	1.1940311
102	0xbfcd6fd0	-1.6049747
103	0x3f9af49c	1.2105899
104	0x3ffa3277	1.9546651
105	0xbff5b0f7	-1.919463
106	0xbfb0b5e0	-1.3805504
107	0xbfca3832	-1.57984
108	0xbfa5975c	-1.2936816
109	0xbfbd509e	-1.4790227
110	0xbfcab6dd	-1.5837055
111	0xbfe03d1a	-1.7518647
112	0xbf6265b8	-0.8843646
113	0xc00842cf	-2.1290777
114	0xbfe5ed04	-1.7962956
115	0xbd04c45d	-0.03241383
116	0x3f8e5449	1.1119472
117	0xbfc9597c	-1.5730433
118	0xc0060aac	-2.0944014
119	0x3fc8aa03	1.5676883
120	0x3e522727	0.20522748
121	0x3f7d9a66	0.9906372
122	0x3fac68a9	1.346944
123	0x3fed11b5	1.8521029
124	0xbfc498e6	-1.5359161
125	0xbe9ecbae	-0.3101477
126	0x3f937ec7	1.1523064
127	0x3fd61764	1.6725888
128	0xbfaf7bfe	-1.3709714
129	0xbfb604e2	-1.422024
130	0x3fb3c6b9	1.404502
131	0xbf964564	-1.1739926
132	0x3f99c87d	1.2014309
133	0x3fd812b6	1.688071
134	0xbfd03008	-1.6264658
135	0xbfdc2159	-1.7197677
136	0x3fb479ff	1.409973
137	0x3fa22c63	1.2669796
138	0x3fd20536	1.640784
139	0xbfd726f5	-1.6808764
140	0x3fea6d05	1.831452
141	0x3faa146d	1.3287483
142	0x3fb42f34	1.4076905
143	0x3f8860ed	1.0654579
144	0xbfe9e15a	-1.8271897
145	0xbfd9a50a	-1.7003491
146	0xbe9cea00	-0.30647278
147	0x3fe1b494	1.7633233
148	0x3e8bfc27	0.27340814
149	0x3f7009e4	0.9376509
150	0x3ebba0df	0.36646172
151	0xbfe79cf6	-1.8094776
152	0xbff08ef9	-1.8793632
153	0xbfe9c5b3	-1.8263458
154	0xbf9997a0	-1.1999397
155	0x3fe1b0ca	1.7632077
156	0x3ff8bccc	1.9432616
157	0xbfb86d1a	-1.4408295
158	0xbfd773f7	-1.6832265
159	0x3fc50262	1.5391352
160	0x3f375f42	0.71629727
161	0x3fa23ae1	1.2674218
162	0xbfe6834f	-1.8008822
163	0xbf5b79d2	-0.8573276
164	0xbfdaf85d	-1.7107044
165	0xbfa9259f	-1.3214606
166	0x3f8d7abc	1.105308
167	0xbfa8408f	-1.3144702
168	0xbfafcc95	-1.3734308
169	0xbfac48e8	-1.3459749
170	0xbfc4ef9e	-1.5385625
171	0xbfaba447	-1.3409508
172	0x3fd15a5a	1.6355698
173	0x3feb1d20	1.8368263
174	0x3fa40284	1.2813268
175	0x3fbf9c18	1.4969511

arith.constant3 f4 [10001, 16]
0	0xbe5ed22d	-0.21759863
1	0x3d911156	0.07083385
2	0xbe3919bd	-0.18076225
3	0x3e007f44	0.12548548
4	0xbc856854	-0.0162851
5	0x3c4417ba	0.0119685475
6	0xbe0610c1	-0.13092329
7	0xbd1e15e5	-0.0385951
8	0xbd96adc4	-0.07357362
9	0x3c848b46	0.016179692
10	0xbd59bc1e	-0.05315792
11	0x3d9027fb	0.07038876
12	0xbc07dab8	-0.008291893
13	0x3e2f816e	0.17139217
14	0xbc2f5beb	-0.010703067
15	0x3dc667b6	0.0968775
16	0x3be06cd0	0.006848909
17	0x3cf5773a	0.029964078
18	0xbd0495d6	-0.032369457
19	0xbd43db0d	-0.047816325
20	0xbd49e33a	-0.049288966
21	0xbc9524e0	-0.01820606
22	0x3c3a540c	0.011372577
23	0x3c3c7c58	0.011504255
24	0xbcf28fa7	-0.029609514
25	0xbc9cd320	-0.019143641
26	0x3d2a2139	0.04153559
27	0x3c3ef180	0.011654258
28	0x3d10f2fd	0.03538798
29	0xbcae804d	-0.021301413
30	0xbc66bed8	-0.014083587
31	0x3d371289	0.04469541
32	0xbe233b18	-0.15940511
33	0x3ed5554c	0.4166664
34	0x3fdcf922	1.7263529
35	0x3f7adc3f	0.9799232
36	0x3a13eae2	0.0005642605
37	0x3fb0cb1c	1.3811984
38	0x3f172320	0.5903797
39	0x3d1ce482	0.03830386
40	0xbda8793b	-0.08226248
41	0xbe977a86	-0.29585665
42	0xbec44ea1	-0.3834124
43	0xbe3051d8	-0.17218721
44	0x3ec70ae8	0.38875508
45	0xbf7c8a0c	-0.9864814
46	0xbf4c1ae2	-0.7972852
47	0xbf9aab2c	-1.2083488
48	0x3df96c4a	0.121788576
49	0x3e1fa850	0.1559155
50	0xbd84d731	-0.06486357
51	0xbd0f937d	-0.035052765
52	0xbde0d4bc	-0.10978076
53	0xbe68c8ef	-0.227329
54	0xbd1ce28a	-0.038301982
55	0x3eb34e42	0.35020643
56	0xbebf65a3	-0.3738223
57	0xbe0de5a4	-0.13857132
58	0xbeb7abf3	-0.35873374
59	0xbe05cefe	-0.13067243
60	0xbea03afc	-0.31295002
61	0x3e52c97d	0.20584674
62	0x3e8979e1	0.268508
63	0x3d960b65	0.07326392
64	0x4067b25a	3.6202607
65	0x3f6d62aa	0.92728674
66	0x3cd61258	0.026131794
67	0xc018778f	-2.3822973
68	0x3fa178d7	1.2615002
69	0xbfa5dda5	-1.2958266
70	0x4002baf3	2.0426605
71	0xbeb6560b	-0.3561252
72	0x3fdb3f2a	1.7128651
73	0x3e8c55df	0.27409264
74	0x3fdec728	1.7404528
75	0xbf84d12c	-1.0376334
76	0x3eccc9ec	0.39997804
77	0xbfcbb162	-1.5913508
78	0x3e907bd0	0.2821946
79	0xc019006b	-2.3906505
80	0x3ff04c35	1.8773257
81	0xbf0d8af1	-0.5529013
82	0xbeff180f	-0.49823043
83	0xc06c0a39	-3.688124
84	0x3fff2aa3	1.9934887
85	0xbfeaacd6	-1.8333995
86	0x3f849f23	1.0361065
87	0x3f0e8ee5	0.5568679
88	0x3eb9e137	0.36304638
89	0x3c2ea87a	0.010660285
90	0x3f9940cb	1.1972898
91	0xbf9ce0dd	-1.2256123
92	0xbf50fd0a	-0.81636107
93	0xc0309470	-2.75906
94	0x3f908cd8	1.1292982
95	0x3e82411c	0.254403
96	0xbe9d9a56	-0.3078181
97	0xbf06b465	-0.5261901
98	0xbd92f37e	-0.07175349
99	0xbeb2e410	-0.34939623
100	0x3e3dc85e	0.18533465
101	0xbe43eda4	-0.19133621
102	0x3e562cc1	0.2091551
103	0x3e706fcb	0.23480146
104	0xbf4531c6	-0.77029073
105	0x3ef4490f	0.4771199
106	0x3ec58746	0.38579768
107	0x3f27b684	0.6551287
108	0x3e1c6868	0.15274203
109	0x3f03648b	0.5132529
110	0x3e21c9a3	0.15799575
111	0x3f98ea23	1.1946453
112	0xbebd36b2	-0.36955792
113	0xbde8df51	-0.11370719
114	0x3e6d494c	0.23172492
115	0xbd093991	-0.033502165
116	0x3db0284a	0.086014345
117	0x3ec3f87d	0.3827552
118	0xbeb3c5bd	-0.351118
119	0xbe4022dc	-0.18763298
120	0x3e139b5c	0.14414734
121	0xbe0b833b	-0.13624279
122	0xbe8a22be	-0.2697963
123	0xbf342734	-0.7037232
124	0xbc73a3c0	-0.014870584
125	0xbe26299f	-0.16226815
126	0x3e11045b	0.14161818
127	0x3d1849aa	0.037179627
128	0xbdad9d26	-0.08477239
129	0xbf2de430	-0.6792631
130	0xbdb07787	-0.08616548
131	0xbe935188	-0.2877314
132	0xbe832bb6	-0.25619286
133	0xbeb3eeee	-0.35143226
134	0xbf0bbc12	-0.5458385
135	0x3ecb5e20	0.3972025
136	0x3f027f67	0.5097565
137	0xbf71efdd	-0.9450663
138	0x3e39bbf9	0.18138112
139	0x3eeabb54	0.45846045
140	0xbd2f8e5d	-0.042860378
141	0xbec041cb	-0.37550196
142	0x3c11c9fb	0.008898254
143	0xbf61688c	-0.8805015
144	0xbdc3d4c2	-0.09562065
145	0xbea6e6e5	-0.32598034
146	0xbd0e76d3	-0.03478129
147	0x3f03da83	0.515053
148	0xbd87b6ac	-0.06626639
149	0xbc94f34a	-0.018182416
150	0xbdae23bd	-0.0850291
151	0xbc248ec6	-0.010043805
152	0xb877ca70	-5.9077924e-05
153	0xbd2c5c96	-0.042080484
154	0x3eaf1feb	0.3420404
155	0x3f9468af	1.1594447
156	0x3ea4446b	0.3208345
157	0x3e01287d	0.12613101
158	0xbed33e87	-0.41258642
159	0xbe55c711	-0.20876719
160	0xbefc4aab	-0.49275717
161	0xbf4c2d29	-0.7975641
162	0xbd9f1938	-0.07768482
163	0xbdaa4bdc	-0.0831525
164	0xbe36c522	-0.17848638
165	0xbd6e689a	-0.058205225
166	0xbd5d5441	-0.05403543
167	0xbeb9fb15	-0.36324373
168	0xbf147d3c	-0.5800359
169	0x3ea1b6b4	0.31584704
170	0x3ea7aee6	0.32750624
171	0x3f25764e	0.64633644
172	0x3da46557	0.080271415
173	0x3f90d716	1.1315639
174	0x3e772d85	0.24138458
175	0x3f59d7c4	0.8509486
176	0xbe18de5d	-0.14928575
177	0xbe623c9f	-0.22093438
178	0x3f25d43e	0.6477698
179	0x3eb9e70f	0.36309096
180	0x3f40ec0f	0.75360197
181	0x3ee9448e	0.45560116
182	0xbe73d5f7	-0.2381209
183	0xbede16ea	-0.43376857
184	0xbe4bf566	-0.19917831
185	0x3e962bd1	0.29330304
186	0x3e8fb481	0.280674
187	0x3ed46bcb	0.4148849
188	0xbc2b5ea7	-0.010459579
189	0xbe790eb4	-0.24322015
190	0x3c3fd909	0.01170946
191	0x3dcc21c9	0.099673815
192	0x3f069561	0.52571684
193	0x3f464835	0.7745393
194	0xbf977fb8	-1.1835852
195	0x3e316e02	0.17327121
196	0xbe01d545	-0.12679012
197	0xbf8bccec	-1.0921912
198	0x3ef3aaf8	0.47591376
199	0xbf41c878	-0.75696516
200	0xbf83eb76	-1.0306232
201	0xbf39f800	-0.7264404
202	0xbf487e9c	-0.7831819
203	0x3f1028b7	0.56312126
204	0x3f8c3031	1.0952207
205	0x3d4436c1	0.04790378
206	0x3eb71bad	0.35763302
207	0x3f8310fb	1.0239557
208	0x3d8893eb	0.06668838
209	0x3f41e133	0.7573425
210	0x3e9477e4	0.2899772
211	0x3f0f4469	0.5596376
212	0xbf9a67d7	-1.206294
213	0x3ee079b7	0.4384286
214	0x3fe576bb	1.7926859
215	0x400ad853	2.1694534
216	0x3c77a0e8	0.015114047
217	0x3f792430	0.9732084
218	0xbe9719b4	-0.29511797
219	0xbf768085	-0.96289855
220	0xbf67a00a	-0.90478575
221	0x3dd1a861	0.10237194
222	0xbfa81410	-1.3131123
223	0xbdaafe0c	-0.08349237
224	0x3f32e9f3	0.6988823
225	0x4008da3c	2.13832
226	0x40281438	2.626234
227	0x404ca531	3.1975825
228	0xc045505d	-3.08303
229	0x4027927e	2.6183162
230	0x401ccc2d	2.449962
231	0xbfee99b1	-1.8640653
232	0x4000971f	2.0092237
233	0x4019328e	2.3937106
234	0x3fcd7d7a	1.6053917
235	0x3fb36e54	1.4018044
236	0x3f09b817	0.53796524
237	0x40044b3f	2.0670927
238	0xc0347384	-2.8195505
239	0xbff2be86	-1.8964393
240	0xbfbcdf57	-1.4755658
241	0x3f29586d	0.6615055
242	0x3fe1066f	1.7580088
243	0x3ff06124	1.8779645
244	0xbfaff4e5	-1.3746611
245	0x401087a3	2.2582786
246	0xbe25f1be	-0.16205499
247	0x3f346a54	0.70474744
248	0xbe3ddca5	-0.185412
249	0x3f08612c	0.5327327
250	0xbf7cf69b	-0.9881379
251	0xbf233ac3	-0.6376154
252	0xbeb83910	-0.35981035
253	0x3f2d3405	0.676575
254	0xbf7ce46c	-0.98786044
255	0xbdabf5cd	-0.08396492

arith.constant5 f4 [11]
0	0x3bb5b821	0.0055456315
1	0xbb1f2ce6	-0.0024288236
2	0x3d9418ae	0.0723127
3	0x3d35b2fa	0.04436014
4	0xbbe1a685	-0.0068863058
5	0x3c2f0a97	0.010683677
6	0xbded8fa7	-0.11599665
7	0xbc8b25f3	-0.016985869
8	0xbc27dc6f	-0.010245427
9	0x3db7b5d8	0.08970231
10	0xbddcfbb1	-0.10790194
